convo-nets/models/pytorch_computer_vision_model_2.pth (torch, 35144 bytes, 10 tensors)

block_1.0.weight f4 [10, 1, 3, 3]
00000000: b99f 9e3e 6b9d 8e3e a787 debe ae5b 183e
00000010: 7fdf 553e 8704 52bb 0bdd e7be b50b e33d
00000020: 9d92 bc3e bdbc 90be 7959 bd3e b77c 11be
00000030: 4536 993e 5c6e d63e d660 043e fdf7 1abe
00000040: 167b be3e 6c74 243d f727 d8be b93a 09be
00000050: 1b36 cfbc 8297 11bf c413 1dbf 624f 263e
00000060: 1aa2 35bf 1ffc 16bf 5aef f8bd da7d 43bf
00000070: 106c 80bf 5b19 48bf 3dae 423e 9431 32bf
00000080: e3ac e73d 858b a03e 6273 363c 7268 cf3e
00000090: 224c a9bd 770c b43e ccb3 15be 0f55 a2be
000000a0: a652 c13e 7674 87be 8e9b 9abd 1eb9 cc3e
000000b0: dccd 1f3e aae8 15be 734e 433e 9da6 703d
000000c0: 356b 2b3e b584 50be 6559 a9be 1c85 04be
000000d0: e62c 82be ea23 903e 1d69 1f3e 0656 5d3d
000000e0: 193e 1dbd 7bff f4bc bfaa 823d b5ac 4ebe
000000f0: 5b61 42bd 2df3 09bf 8b8c 46bc 77c7 00be
00000100: f664 e33d 0fb6 eebd 684c b63e e508 6ebe
00000110: 73aa 91be 1339 5dbe 1990 a83e 92e2 1f3e
00000120: 8fcf ca3e 0288 85be f45b a6be 53ab 8bbe
00000130: a633 76be 565e e33d 3e16 cf3d b746 923e
00000140: dd92 38be 42ed 67be 3398 353e f7a5 09be
00000150: 7a4e 513e a66b a0bd 65cb 433e 219c 84be
00000160: 5319 2cbe a41b d23d
0.30981234 0.27854475 -0.4346287 0.14878723 0.20886038 -0.0032046156 -0.4528583 0.11086217
0.36830607 -0.28268996 0.36982325 -0.14207731 0.29924217 0.41881073 0.12927565 -0.15133663
0.37203282 0.04015009 -0.4221799 -0.13401307 -0.025294354 -0.5687181 -0.61358285 0.1624122
-0.7095047 -0.58978456 -0.12155028 -0.7636391 -1.0032978 -0.7816369 0.19011779 -0.696069
0.113122724 0.31356445 0.011135908 0.40509373 -0.08266474 0.3516576 -0.14619368 -0.3170552
0.37758368 -0.2645604 -0.07549201 0.39984983 0.15605873 -0.14639536 0.19072895 0.058752645
0.16740115 -0.20363124 -0.33076015 -0.12941402 -0.2542488 0.281524 0.15567441 0.054037116
-0.0383893 -0.029906979 0.063802235 -0.2018307 -0.047456127 -0.5388668 -0.012118469 -0.1257609
0.11103241 -0.11655819 0.35605168 -0.2324558 -0.28450355 -0.21603803 0.32922438 0.15613773
0.3961148 -0.26080328 -0.3249203 -0.27279148 -0.2404314 0.111019775 0.10111664 0.28569576
-0.18024774 -0.226491 0.1773384 -0.13442217 0.20440093 -0.07833032 0.19120558 -0.25900367
-0.16806535 0.10259178

block_1.0.bias f4 [10]
00000000: 7e67 d53c cacc bf3d 60c5 343e c62b 183e
00000010: 4b69 6f3d 093d 31be 75e7 fb3d dc90 06bd
00000020: 294e cbbc a585 a4be
0.026050325 0.09365232 0.17653418 0.14860448 0.058450025 -0.1730844 0.12300006 -0.032852992
-0.024817543 -0.32133213

block_1.2.weight f4 [10, 10, 3, 3]
00000000: 0efb 823d 14e7 fcbb d9e7 d6bd fb5a 14be
00000010: bda3 31be 1f3d 53be acb7 24be c710 42be
00000020: 9af1 2fbe ced3 c5bd 7cf5 3abd 73b3 fbbd
00000030: 9894 08be b664 92be 4d51 68be b0de 9abd
00000040: e173 3bbe 3882 39be d94a 4b3c 6a2d 823c
00000050: 203f f53d 363f fa3d 64ee 893e 084a 5b3e
00000060: 7ecb f5bd 5e02 0ebd 51fa 8a3d e9a1 3dbe
00000070: b53e dabc a16b 4ebe 8e0b 843c dc87 e33a
00000080: 6d99 dfbd f6b9 603e 2790 af3d 24a0 413d
00000090: 1b81 f9bd d585 2fbe 34dc 5abd 7c32 d6bd
000000a0: 2a9c 94bd b621 3dbe df36 0b3e 5994 d6bd
000000b0: b221 44bd baef b73c c9bf 5f3d 4041 ae3d
000000c0: 4270 c43d fc38 abbd be8b f53c a1f7 38bd
000000d0: c8c1 51bc 87eb 9dbd 4234 fc3d 2e7b a4bd
000000e0: 4c23 83bc 25c3 e63d b56e 9b3d 80fc 1cbd
000000f0: 0a26 2b3c fd83 bbbc 42b6 a3bd 015b b2bd
00000100: e8b1 463d 1505 2abc 8c52 4fbd effb ab3d
00000110: 1ed6 543c 3ce8 2cbd 8b58 7fbd 0f31 7fbc
00000120: 7a57 a63d 06fc 45bc 3300 5abd 3d39 debc
00000130: 3c01 92bd d16c 353d 37be d33d dd76 c8bd
00000140: 890f c53c f811 5f3d 8961 9c3c 8cb8 19bd
00000150: 1f5a 613d c5e4 623d 487c 213d d7bc 97bc
00000160: c4a8 e4bc bcab 383c 9d70 88bc be2e a3bd
00000170: 1409 2b3d d11b 1f3e 6938 f0bc e278 afbd
00000180: 17be 763d 4e02 173d 3a16 a93c 4454 a43c
00000190: bdf9 04be 2518 60bd a6dc e73d 339b 553d
000001a0: dc77 f9bc 9531 3dbd 8f14 32bd b2b7 a3bd
000001b0: f793 19bd db40 0b3d badf 8b3d 427b 393d
000001c0: 912a cdbd e189 a9bd 6f9a 6fbc ef90 d73d
000001d0: 13d5 c13a c6d1 0d3b 52e7 793d f777 37bd
000001e0: 8535 6fbd 2a9b 093e f452 a7bc ac58 e5bc
000001f0: db4e bdbd d091 093e 3003 a03d 1edc 9c3c
00000200: a069 c2bd 95bc c8bd 499a c6bd c2aa 5a3d
00000210: d815 5f3d 4816 c73d 1a29 533d 6670 db3c
00000220: 7b5e 4fba cb19 a4bd 72c7 b8bd e7a6 c9bd
00000230: 5442 323d debf 53bd b7f0 adbc baf2 77bd
00000240: 4922 c2bc 8586 a1bd fb4c 94bd f053 233d
00000250: 8c17 65bd b38a 6a3d ac8a aebc 66b1 a0bd
00000260: 68da d0bc 4530 06bd fd8e ecbc f8a8 cfbd
00000270: 3bbc ae3d 8a10 4abd 0d7b 5e3d e4c4 343d
00000280: 0d56 aa3d c7bd 78bd 430f ab3d 7612 34bd
00000290: 068d 2f3d e242 ce3d ed35 0dbc 9d1c db3b
000002a0: dd04 bbbc ca94 b9bd d172 563d c14e d6bd
000002b0: 0902 863d 558d a13d 592b cc3d 23a6 cbbc
000002c0: 885b b1bd 2038 c23c a283 6e3d fddd d6bd
000002d0: da14 cfbc 639c 86bd 5c15 48bc 8564 50bd
000002e0: 4aa6 39bd 418a 1dbd 828a c6bd 7e01 b33d
000002f0: 4737 aa3d b43f 8cbc 6e59 53bc 8769 30bd
00000300: 5656 bcbd 99e6 cfbd a815 193d fe4d 51bd
00000310: 3de7 81bd 63ca 3abc cff8 1fbd ee9a 20bd
00000320: d35b eeba b4bf cabc 5122 29bd af30 62bd
00000330: 9083 b2bd f331 b23d a4b8 2cbd 885c c43c
00000340: fa82 25bd dbf1 633b 9b5d d33d 36c3 523d
00000350: 8e57 bdbd 31b1 063d ece6 bc3d 5027 b23c
00000360: f119 903d 1107 d43d 2eb7 87bc 735b da3c
00000370: d761 91bd 7b04 babc 1d36 9c3d fe96 533d
00000380: b17e 95bd 241c adbd e685 93bd 390b d5bd
00000390: c295 a6bd 076a d6bc a8cd 913d 3374 903c
000003a0: 6d36 a4bd 1429 adbd 586d 433d a95e aabd
000003b0: 7dbd 90bc 90d9 3b3d 3c5d 5cbd b394 59bc
000003c0: a161 39bc 3081 d9bc 996d 60bd 7671 c0bd
000003d0: e87f aebd 262b 67bd 2fe9 d23d 8867 50bd
000003e0: acb4 91bd 7a0d c73c 879a fe3c d83b 703d
000003f0: 8b09 a43d de51 703d 8311 d6bd 74f0 313c
0.06395541 -0.0077179763 -0.1049344 -0.14487831 -0.17347617 -0.20628785 -0.1608569 -0.18951713
-0.17182007 -0.09659539 -0.04564427 -0.122900866 -0.13337934 -0.2859246 -0.22687264 -0.075620055
-0.18305923 -0.18116081 0.012407982 0.015890796 0.11974931 0.12219088 0.2693969 0.2141496
-0.12001704 -0.034670226 0.06786025 -0.18518795 -0.02664123 -0.20158245 0.016118791 0.0017359215
-0.109179355 0.21945938 0.08572417 0.047271863 -0.12182828 -0.17140897 -0.05343266 -0.10458848
-0.072563484 -0.18469891 0.1359515 -0.10477514 -0.047883697 0.022453178 0.05462626 0.08508539
0.09591724 -0.08360478 0.02997386 -0.045158032 -0.012802549 -0.07710939 0.12314655 -0.08031307
-0.016008042 0.112676896 0.07589475 -0.03832674 0.010446081 -0.022890085 -0.07993747 -0.08708764
0.04850951 -0.010377188 -0.050615832 0.08397662 0.012990503 -0.042213663 -0.0623403 -0.015575661
0.081221536 -0.012084013 -0.053222846 -0.027126903 -0.07129142 0.04429323 0.10339015 -0.09788296
0.02405526 0.054460496 0.019089477 -0.037529513 0.055017587 0.055393953 0.039425164 -0.018522663
-0.027912505 0.011271413 -0.01665526 -0.079679 0.041756704 0.15537955 -0.029323773 -0.085679784
0.060239878 0.036867432 0.020640481 0.020059712 -0.12985893 -0.054710526 0.11321382 0.052149963
-0.030452661 -0.046189863 -0.043476637 -0.079940215 -0.037494626 0.033997398 0.06829782 0.045283563
-0.100178845 -0.082782514 -0.014624222 0.10525691 0.0014788233 0.0021639927 0.06101162 -0.04479214
-0.05840065 0.13438097 -0.020425297 -0.027996384 -0.09243556 0.1343453 0.07813108 0.019147929
-0.094928026 -0.09801594 -0.09697396 0.053385504 0.05446419 0.09721047 0.05155287 0.026786994
-0.0007910502 -0.08012732 -0.09022416 -0.09846287 0.043520287 -0.05169665 -0.021232946 -0.060534216
-0.023697989 -0.07886986 -0.07241245 0.03987497 -0.05593066 0.05726118 -0.021306358 -0.07846336
-0.02549477 -0.032760877 -0.028876776 -0.1013965 0.08531996 -0.04933218 0.05431657 0.044133082
0.08317194 -0.06072786 0.0835252 -0.04396292 0.0428591 0.10071351 -0.008618814 0.0066867606
-0.022829467 -0.090615824 0.05235559 -0.1046424 0.06543357 0.07888285 0.099692054 -0.024859494
-0.08660036 0.023708403 0.058231004 -0.1049156 -0.025278497 -0.06572797 -0.012212124 -0.050877113
-0.0453246 -0.038461927 -0.09694387 0.08740519 0.083113246 -0.01712022 -0.01289974 -0.04306939
-0.09196155 -0.10151405 0.03737417 -0.05109977 -0.06342933 -0.011400792 -0.03905564 -0.039210252
-0.0018185325 -0.024749614 -0.041292492 -0.05522221 -0.087165 0.08700933 -0.042168275 0.023969904
-0.040408112 0.0034781608 0.10320588 0.0514557 -0.09245215 0.032883827 0.09223732 0.021747261
0.07036198 0.1035291 -0.01656684 0.026654935 -0.070987396 -0.022707215 0.07627509 0.05165767
-0.07299555 -0.08452633 -0.072032735 -0.10402531 -0.08134033 -0.026173605 0.07119304 0.017633533
-0.080181934 -0.08455101 0.0477117 -0.08318836 -0.01766848 0.04586178 -0.053799853 -0.013280082
-0.01131478 -0.02655086 -0.05479202 -0.09396641 -0.0852049 -0.056437634 0.102983825 -0.050879985
-0.071145386 0.024298418 0.031079544 0.05865082 0.08009633 0.058671825 -0.10452559 0.010860551

block_1.2.bias f4 [10]
00000000: 6181 c93e e696 b4bd c8f4 86bd 9668 f43e
00000010: 182a 14be 11ba e83d fdde a23d cee1 6fbd
00000020: 3e54 913e 599b 953d
0.3935652 -0.08817844 -0.06589657 0.47736043 -0.14469182 0.11363614 0.07952688 -0.058564954
0.28384584 0.07305021

block_2.0.weight f4 [10, 10, 3, 3]
00000000: 90bc 273c 0909 b4bd 6625 4bba 1088 e33c
00000010: 820c 553d e6d8 323e ae3b 6fbb 6f4b e03d
00000020: dfd2 2c3e ddd0 693d 2242 b2bd ea72 09bd
00000030: 2455 b0bd db49 5dbd a3a0 953d 5dbe 25b9
00000040: f97a 0e3d 02e8 3fbd 3c3a 863c 22c1 81bd
00000050: b8ec 593d 4244 3bbd f6c1 d4bc c37a bbbd
00000060: 1ac4 dd39 36f5 cc3d f1b1 523d 6312 f3bd
00000070: d8f6 eb3c d57f f2bd c088 2bbe d0b1 bb3d
00000080: 41a6 04be 2110 9bbd 52a7 33be 977a 02be
00000090: 7887 0f3c 092f 093d 63ab 713c 5c5f 69bd
000000a0: a6bf c73d beae cabc a236 97bd d6c3 5ebd
000000b0: 4503 c13d ccf7 033d 270a 53bd 8639 17bd
000000c0: 8b0a 3e3d 75b8 48bd 2b6d c0bb f907 813d
000000d0: 5444 2c3e 50f8 1f3e 7514 05be 8be8 513e
000000e0: 7df2 b9bd 3d41 313d 5e5c 593e 7094 eb3d
000000f0: 6892 203e 492f e33b 006b 5e3d 93e2 353d
00000100: 8e7e 503d fb3c 1d3d 983f 77bc f635 e33d
00000110: 8cd0 8abd e9aa ca3c e1fc 91bd 020f 303c
00000120: a5a3 09be 90b1 12bd de76 61bd 5472 273d
00000130: 3b37 2a3e 4994 453c ca3b ecbd b6ef cebd
00000140: 306a 813c 82f1 1f3e 8ff4 bbbd 996c 6a3d
00000150: 8e04 4a3e 2187 693d a803 e9bc 81bb ad3d
00000160: e7e0 1f3d 8f81 af3d a414 14be a50c 99be
00000170: a492 64be 33eb 023e 0457 75be a712 58bc
00000180: 893e bb3c bcd6 ee3d dd42 d53a 7cfb 983c
00000190: 45be c9bd 4aeb 24be 947b 66bd 3fe1 bf3d
000001a0: 130a 64bd c658 123d 1ece 2abd be47 2b3d
000001b0: 8ccc 723d e7be 183d 476f 5bbd 54eb afbd
000001c0: bf73 783b 5c0b 7dbd 2220 b23d b0aa cfbd
000001d0: 0246 403d f852 4c3d bc30 053f aed5 a43e
000001e0: 609a 80be e489 433f 5dbf 5b3e 720b 43bf
000001f0: 0b45 77be f133 a8be aacb b03c eec1 013e
00000200: e7bd bcbc 223f 3cbd 8a26 9d3c e406 613c
00000210: 4fc0 c73c fb2d f6bd 82d6 133b a018 733d
00000220: db0e e1be 794b 2ebe b8d9 823e cb6c ee3d
00000230: e4ea 75bd 0179 183e fdfe 6a3e 3c56 fb3d
00000240: b21d 06bf c500 113c a61d a3bd 3a06 15bf
00000250: 1f2e af3e 880c cd3e 9ce7 bfbe 2e8f d63c
00000260: 2057 ff3c 80c4 d8bd 13cb a9be d9db 0bbe
00000270: 255c a9be 9ba8 b5bd a985 40be e364 9cbe
00000280: 778b f0bd f6a0 51be a881 d1be 58fb 563e
00000290: 8405 da3e 1a3c 3ebe f863 cd3e bc59 743e
000002a0: 6b4b 83be 46de cabd 62c5 45be 578f c53e
000002b0: aef8 e8bd abd8 cdbe 80ae 283e edb1 9b3c
000002c0: 3d82 8dbe 8344 a8be 1393 293e eccc dc3d
000002d0: 3d00 8dbc 3cc3 9c3d 92bf 113d 72a9 46bd
000002e0: 1782 dcbd adaa bbbd 4576 88bd ae6e 90bd
000002f0: 522f 38bd bdf6 d8bc 58a1 5cbd 7fe5 1bbd
00000300: 6fe4 19bd 95b8 d53d 85ba 25bd 6667 a1bd
00000310: a0b2 303d 8723 e6bb b900 a53d 83bb 863d
00000320: e69a c63d f43e 9ebd f1a8 8a3d de45 b53d
00000330: 4d41 55bd f044 c63d 2dd7 a13d b1f6 88bd
00000340: 4e82 c73c de90 b53d f795 30be 9bb1 713d
00000350: a59d 0a3e 9608 1dbe 8c98 953c f4fe 8fbd
00000360: 00a2 a63d 3f51 c13d eff8 f93c 4056 8bbd
00000370: cf8c 6f3d 2ccf fa3c 688b 4b3c 5dd2 be3c
00000380: 1752 893d cd49 28bd 66ee cebc 6058 e53c
00000390: cd4f 3e3c b5dc a43d 774f 57bd 4d4d 12bd
000003a0: 1abc 463c 27ed 85bc 1c3d 8f3d 0d16 2ebd
000003b0: a7b6 92bd 6420 a2bc 388a 95bd 23a8 763d
000003c0: e16a ddbd 42e9 1ebe 20fb 13bd 5804 14bc
000003d0: 80c9 34bd 4b66 f13d f0f1 e1bc 8a0a 983d
000003e0: 29e4 513d 2eda 06be b0fb 583c 5810 8e3d
000003f0: 0896 d2bd f1ec 08be d02e 3c3e 21ec 1c3d
0.010237828 -0.08790786 -0.0007749408 0.02777484 0.05201388 0.17465553 -0.0036504078 0.10951888
0.16877316 0.057083953 -0.0870402 -0.033556856 -0.08609989 -0.054025512 0.0730603 -0.00015806542
0.034785245 -0.04685212 0.01638519 -0.06335665 0.05320427 -0.045719393 -0.025971394 -0.09154274
0.00042298512 0.10007708 0.05143923 -0.11868741 0.028804228 -0.11840788 -0.16751385 0.091647744
-0.12954046 -0.07571436 -0.17544296 -0.12742077 0.008760326 0.03349212 0.014750334 -0.056975707
0.09753351 -0.024741527 -0.07383467 -0.054385982 0.09424452 0.03221874 -0.051523354 -0.036920093
0.046396773 -0.049004037 -0.005872389 0.06300349 0.1682294 0.15622067 -0.12996085 0.20498864
-0.09079454 0.043275107 0.21226642 0.115029216 0.1568085 0.006933127 0.054301262 0.04440553
0.050901942 0.038388234 -0.0150908455 0.110942766 -0.067780584 0.0247397 -0.07128311 0.010745766
-0.13441332 -0.035813868 -0.055045 0.040880516 0.16622631 0.01205928 -0.11534841 -0.10104315
0.015797704 0.15619472 -0.09177505 0.057232473 0.197283 0.057013635 -0.028444126 0.08483029
0.039032843 0.08569633 -0.14460999 -0.2989246 -0.22321564 0.12785034 -0.23958975 -0.013188041
0.022856968 0.11662051 0.0016270537 0.018674605 -0.09850744 -0.1610538 -0.056270197 0.09369134
-0.05567367 0.035729192 -0.041700475 0.041816466 0.059277102 0.037291434 -0.05357292 -0.08589807
0.0037910787 -0.06177841 0.08697535 -0.10139978 0.046941765 0.049883813 0.5202749 0.32194275
-0.2511778 0.7638228 0.21459718 -0.7618934 -0.24147432 -0.32852128 0.02158149 0.12671635
-0.023039771 -0.045958646 0.019183416 0.013734553 0.024383692 -0.12020489 0.0022558277 0.059349656
-0.43956646 -0.17020978 0.2555673 0.11641844 -0.060038462 0.1488991 0.22948833 0.12272307
-0.5238906 0.008850281 -0.07964639 -0.58212626 0.34214875 0.40048623 -0.3748139 0.02619132
0.031169474 -0.105843544 -0.33162746 -0.13658084 -0.33078113 -0.088700496 -0.18800987 -0.3054572
-0.11745351 -0.20471558 -0.40919232 0.20994318 0.42582333 -0.18577614 0.40115333 0.23862356
-0.25643477 -0.099056765 -0.19313577 0.38585922 -0.11375557 -0.40204367 0.16472816 0.01900574
-0.27638426 -0.3286477 0.1656001 0.10781273 -0.017212028 0.076544255 0.035583086 -0.04850144
-0.10767 -0.09163413 -0.06663183 -0.070523605 -0.044967003 -0.026484841 -0.053864807 -0.03806066
-0.037571367 0.10435597 -0.040461082 -0.0788105 0.0431391 -0.007023278 0.080567785 0.06578734
0.09697513 -0.07726851 0.06770504 0.08851217 -0.05206423 0.096811175 0.0790237 -0.06687678
0.024354126 0.08865522 -0.17244707 0.05900727 0.13536699 -0.15335307 0.018261217 -0.0703105
0.08136368 0.094393246 0.030514209 -0.0680356 0.058483895 0.030616365 0.012423374 0.023293668
0.067051105 -0.041086007 -0.025260162 0.027996242 0.011615706 0.08049909 -0.052566018 -0.03571825
0.012129808 -0.016348435 0.069940776 -0.042501498 -0.071637444 -0.019790836 -0.07301754 0.06021894
-0.10811401 -0.15518668 -0.036128163 -0.009034239 -0.044137478 0.11787089 -0.027581185 0.07423885
0.05124298 -0.13169166 0.013243601 0.06936711 -0.102825224 -0.13371636 0.18377233 0.038311128

block_2.0.bias f4 [10]
00000000: 47e2 23bd 5e91 493e a8ec 4cbd c329 47be
00000010: fdd4 14bd 4ea7 433d 008e 943e 9aa2 963e
00000020: 3321 433f e7ec 84bd
-0.040010717 0.1968436 -0.05003038 -0.19449525 -0.036335934 0.047766976 0.29014587 0.2942093
0.76222533 -0.06490498

block_2.2.weight f4 [10, 10, 3, 3]
00000000: 4230 d9bd 4eed abbd 34e9 02bd 203d 06bd
00000010: 50e7 50bd e792 e6bc f0e1 4d3d 5cf6 9dbd
00000020: fd79 6a3d abbc 1bbe 1a21 96be c17b b6bd
00000030: d86a 383d 862c 60bd f428 1fbf 042a ae3e
00000040: 8a84 983e 8780 3abf 031c c6bd 62e9 4d3c
00000050: cdc6 bc3d 581d 6bbe 4348 b83d c2c1 0d3d
00000060: ca49 bbbd 0322 d93d 7ce0 edbd e87e 12be
00000070: 1b2a 983d 97fd 8fbd 393e f3bd e9c2 1ebd
00000080: 7449 08bd 4b74 85bd cf5d a9bc fead 74bd
00000090: d7f1 10bd c41d c3b9 dc2a cf3d 3301 90b9
000000a0: 52a3 07bd f655 41bd 7d94 08bd 6222 2bbd
000000b0: 0fcc 2ebe 5bab 99bd 15dc 9dbd c5d5 b03d
000000c0: d830 e03b c9a0 583c b51e 273d 5126 c73b
000000d0: 77da 69bd 69de 03be d51d 0cbe de9b a438
000000e0: f82c 18be 9473 aebe a06b abbd 000e c33d
000000f0: 9d41 55be 403f a83e 9b88 6c3e 2bcb 533e
00000100: dbba 153e b2ac 043e 26f2 00be a59f d43d
00000110: fc73 8bbd ef1e 12be 4d78 153d 0e7b 53be
00000120: 4e92 e83e b81b d9bd 6700 a33c 0baf 863d
00000130: 2127 a1be 06bb ca3d 2953 9fbe f942 c1be
00000140: 6d06 93be 46be eebc 9827 823d 7432 67bd
00000150: c267 b53c 2b18 85bd ece5 19bd 5743 ec3c
00000160: 0b14 dcbc 8305 4fbd e031 8d3d 0fc4 c63d
00000170: f976 ca3c 5452 40bd 20ff aa3d fb63 5e3c
00000180: f84b 593e c93e 613b 30e9 023e f24f 0d3e
00000190: 147c 2c3e 11c4 79be e88b d3bd 4407 51be
000001a0: 2d6e db3e cc5a 73be b1e8 11bf 46aa 843e
000001b0: 1974 54bd 103b c4bd 68c3 653d 0245 123d
000001c0: 84d3 16be 3fe2 3abd 6203 7ebd a939 4dbe
000001d0: 96d3 76bd dec4 a63b cd89 c93d fc21 473d
000001e0: 9027 543e 2f96 07be a5e2 03be dbda 783e
000001f0: 52b3 0a3d bf8e 85bd 0989 a7bc 9d85 ad3c
00000200: 101e 82bc d784 1a3c 25a2 acbd e9a7 373c
00000210: 8335 8c3d e6ea c4bd d849 f2bd c80d 123c
00000220: 9e0d b43d 6c6e c33d f927 babc c36a afbd
00000230: 185e 883d fde5 d23d ba88 423d 1aa8 8e3c
00000240: 739d c0bd 9bad 89be 511e 5e3e 3f6e 8cbd
00000250: be80 4abe c019 ba3e 23fa 243e a701 d5bd
00000260: e28b dd3d ba42 73bc 2406 25be 18ea 64bc
00000270: b267 343e 65bc dabe 660c c8bd d39e 843e
00000280: d85f f9be c0e0 1f3e dc21 95be 66dc 1abe
00000290: 335c 4dbe fc1a 1e3e 0e4d 1d3e 342c f2be
000002a0: 3a88 083e 1779 cc3d 6b68 f4bd 0b06 bbbc
000002b0: 931a a03d 5289 fb3d 8084 8cbd ea0c 83bd
000002c0: 5de9 643d 8778 7e39 981d 87bc c9ed a6bd
000002d0: 2076 263e 1fef 9939 dad5 fbbd 3d71 56bd
000002e0: 2b64 72bd 121e 11be 2d40 693d c04e 9a3d
000002f0: a9c6 dfbd 7938 25bf f26c fbbd 5aae 25bf
00000300: 53fc 0bbf 9af1 0c3f 6ffc 63be 5ff8 8cbe
00000310: 8f63 203e 7de3 073f c849 80bd e4ef bfbd
00000320: 0e4d 9abb 8525 45bd 61ca d8bc 40ec 8b3d
00000330: fe99 23bd cfc9 0ebe e012 f73d 4030 abbd
00000340: 6680 d63d e144 6bb9 f407 2d3d 913d 163c
00000350: cc30 4bbe 41b2 073b 1d84 913c 2280 f4bd
00000360: f08f b43d ab41 d4bd 3a50 a0bd 54d9 f2bc
00000370: 56c0 6c3d 658c bcbd 96b5 ea3d 96a6 3a3d
00000380: 1879 7c3d 6348 dd3d 5cdb c63c 6947 29be
00000390: 8417 c63d 1129 923c e538 96bd 21d7 eebc
000003a0: 1676 e63c 5385 b4bd fd4d 1fbf e8bd 30bd
000003b0: 67d1 b03e 6a8a 85be 1c18 00be d6f7 debd
000003c0: 60f1 88bc b861 9d3d bc5e 033e a521 d9be
000003d0: 03fa c53e 021d 863e 9909 44bd 8628 f7bc
000003e0: 5942 5ebd e580 b43d 7a7a a7be 2875 53be
000003f0: 4fde 2abe 2657 e0bd 300b c23c f321 083d
-0.106049076 -0.08394872 -0.03196068 -0.032773137 -0.051001847 -0.02814622 0.0502643 -0.07713005
0.057245243 -0.1520869 -0.2932213 -0.08910323 0.04502377 -0.05472996 -0.62171865 0.3401643
0.2978862 -0.7285237 -0.096733116 0.01256785 0.09217606 -0.22960413 0.08998158 0.03460861
-0.091449335 0.1060219 -0.116150826 -0.14306223 0.07429906 -0.0703079 -0.118771024 -0.0387601
-0.033273175 -0.06516322 -0.020674614 -0.059736244 -0.035386886 -0.00037215475 0.10115597 -0.00027466714
-0.03311474 -0.04720112 -0.033344734 -0.041780837 -0.1707003 -0.075033866 -0.07707993 0.08634523
0.00684176 0.013221928 0.04080077 0.0060775657 -0.05709311 -0.12877811 -0.13683255 7.849162e-05
-0.14860904 -0.34072554 -0.08370137 0.09524155 -0.2082581 0.32860756 0.23098986 0.20682971
0.14622061 0.12956503 -0.12592372 0.10382012 -0.06809232 -0.14269613 0.03649168 -0.2065241
0.45424122 -0.1060099 0.019897653 0.065763555 -0.31475165 0.09898953 -0.31118134 -0.3774641
-0.2871584 -0.029143464 0.06355208 -0.0564446 0.022144202 -0.0649875 -0.037572786 0.028840704
-0.026865026 -0.050542366 0.068942785 0.09705364 0.024714934 -0.046953514 0.083494425 0.013573642
0.21220386 0.0034369698 0.12784266 0.13800028 0.16844207 -0.243912 -0.103294194 -0.20412928
0.42857495 -0.23765105 -0.56995684 0.25911158 -0.05186853 -0.09581578 0.056094557 0.035710342
-0.14729124 -0.04562592 -0.062014945 -0.20041527 -0.060260378 0.0050893864 0.098407365 0.048616394
0.20718217 -0.13240884 -0.12879427 0.24302237 0.03386242 -0.06521367 -0.020451086 0.021181876
-0.015883476 0.009431086 -0.08429364 0.0112094665 0.06846144 -0.09615116 -0.11830491 0.0089144185
0.0879166 0.09542546 -0.022724139 -0.08565285 0.06658572 0.10297773 0.047493674 0.017414141
-0.09405031 -0.26890263 0.21691252 -0.06856965 -0.19775674 0.3634777 0.16111045 -0.10400706
0.10817696 -0.014847452 -0.16115624 -0.013971828 0.17617682 -0.4272186 -0.0976799 0.25902423
-0.48705935 0.15613079 -0.29127395 -0.15123138 -0.20054702 0.15439981 0.15361425 -0.4729935
0.13333216 0.099840336 -0.11933979 -0.02283003 0.07817569 0.12282051 -0.0686121 -0.063989475
0.055886615 0.00024268228 -0.016493604 -0.08150823 0.16255999 0.00029360593 -0.12296648 -0.052354086
-0.05917756 -0.14171627 0.05694597 0.075345516 -0.10926563 -0.64539295 -0.12276639 -0.64719164
-0.5468189 0.55056155 -0.22264265 -0.27533242 0.15662979 0.53081495 -0.06264073 -0.093719274
-0.0047088927 -0.048131485 -0.02646369 0.068321705 -0.03994178 -0.13944171 0.12064147 -0.08358812
0.10473709 -0.00022437006 0.042243913 0.009169952 -0.19842833 0.0020705613 0.017763192 -0.11938502
0.088165164 -0.10364088 -0.07827802 -0.029644646 0.057800613 -0.09206466 0.11460416 0.045569025
0.06163892 0.10804822 0.02427452 -0.16531147 0.09672454 0.017841848 -0.073350705 -0.029155316
0.02813248 -0.08814492 -0.62228376 -0.04314986 0.3453476 -0.26082164 -0.12509197 -0.10887115
-0.01671666 0.07684654 0.12829107 -0.4240848 0.38667306 0.26194006 -0.047860716 -0.03017069
-0.054262493 0.08813647 -0.3271063 -0.2065016 -0.16686366 -0.10954122 0.023686975 0.0332355

block_2.2.bias f4 [10]
00000000: d1f2 683e 15dd 49bd 9ebe 7a3e 944e f13c
00000010: 0fba e5bd 4ac0 813e a47c 9b3d debf bbbd
00000020: 2597 7dbc 7c29 c2bd
0.22748877 -0.049283106 0.24486777 0.029456414 -0.112171285 0.25342017 0.07592133 -0.09167455
-0.01547793 -0.09480569

classifier.1.weight f4 [10, 490]
00000000: 6a47 cebc 553f ef3c 8408 c63c 05d5 62be
00000010: 9673 4a3d beb2 d9bd e2fc 523d b7c0 673d
00000020: 14f7 3e3e 9495 e63d c5d3 58be 3546 843d
00000030: eb01 233e 577c 2c3e f8d8 073d 953c d63d
00000040: 25b4 3c3e e022 23be 4f89 313e 043b 233b
00000050: 5bb5 58bc 668d dcbc 8a6e 263e d2fa 85bd
00000060: 217b 9ebd cd7c 2c3e b462 95bc 5457 1bbd
00000070: edf6 c2bd a37d e93c aff2 44bd 4ef7 01bd
00000080: d080 763e c779 b7bd 060b 593c 4b01 c13b
00000090: 25fb e0bd 6f7b 20bd 72c0 febd b2b1 a1bb
000000a0: 3eb8 153e 0167 cabd dcd5 683d aee6 34be
000000b0: 9902 2cbe 2d20 c6bc 2c85 79bd b2c0 893e
000000c0: 10dc 9bbd 0aea 433e ade2 023e 6d6d 39be
000000d0: 1dba c9bd 6eba 8d3d d762 eabd cbf4 173e
000000e0: 368e 3a3d 4b17 d5bc 189f 50be 315a 95bc
000000f0: bb7d cc3c 9dd6 a23d fa6f 203b b41b b63d
00000100: 9d00 423e 2fa8 0abe cc0f 0cbd 9040 43bd
00000110: 9670 0d3e 7a24 a33d 449e ab3d b696 34bb
00000120: 515b 8abb 6815 b7bd cd59 bfbd 4f3d 413e
00000130: 1e2f 74bd ae3c 14bb 9bf2 57bd 5115 8abd
00000140: bf7e 08be 7566 903d 4f86 363e f145 13be
00000150: cdef 3bbe 9fc8 113d 402d 25be eef7 00be
00000160: c9af 133c 9efb d2bc 8698 6a3d 2a46 89bd
00000170: 4609 51bc f5d4 3d3e 15e5 a6b8 7fc4 afbd
00000180: 471b eebc d861 823d 557e 313d 9818 00bd
00000190: 78b7 993d 8b29 08bd 1340 c43d 0a4d 103e
000001a0: f980 b53c 6b00 583e 0d75 f03d e604 d63d
000001b0: 3b39 ed3b 8215 5d3d 0374 2a3e b890 9b3d
000001c0: 5421 bc3d f307 163e 70bd a03e bb22 cbbc
000001d0: 8477 d33b 0170 363b c882 10bd 5f5a 08bd
000001e0: e751 0bbe 288f fe3d 2a7c a6bd 2834 34bd
000001f0: 361f c23d accf 93bd ff4e 6bbe 0631 c3bb
00000200: 47e6 de3d 3027 cebc 1a1a 04be 5310 033d
00000210: 1a17 973d c14d acbd d9df c23d 0afa 6c3d
00000220: 8b9b 96bd 3491 26be 46f1 d3bd c593 343d
00000230: 75bc 6ebd 7273 bc3d b826 5f3d c195 0cbe
00000240: c01c b8bc c955 16be 8149 f0bd 4bc2 083e
00000250: ac0b a6bd 4f3a cabb aa85 80bc 593e bd3d
00000260: 5a3d 613d 9b7f 03bd 28e4 02be dac1 8abd
00000270: f2a0 babd 0af7 3cbc d268 1b3b fa9c c1bd
00000280: f4ab 00be 5ffb 1cbe f988 66bd 0d71 89bd
00000290: 4b7f 3c3d 3d3b 1fbd e2ff 98bd 7d94 883d
000002a0: 46f2 bb3a dfc8 f43d fcb2 0ebc a25d 123d
000002b0: 7a23 a83c 6082 2bbb 4379 1c3e e9c7 06bd
000002c0: cbbb 373e 9e64 f3bc ce2e 7abd 62de 1fbd
000002d0: 85dd 6abd 51b5 243e ef26 53bd a64d 3d3e
000002e0: 1d63 55bd 5611 9cbd 5c6d 13bc d4fb c6bc
000002f0: c8ef fb3d fc16 7d3c 108e d43d 10e0 87bd
00000300: e24c 8b3c 78ac a1bd bc88 11bd b083 843d
00000310: 2232 673b d474 a93b 3c88 ecbc ad77 543c
00000320: 77ba d63c 8928 0abd d59f 93bc 7592 5a3b
00000330: 474e 3cbc 87e7 3e3e f4c7 653e 3865 873d
00000340: f599 523c 8f29 82bc 3738 ae3d 73dd 023e
00000350: 8aad ad3c d17b 3b3e cb4f c43d 4947 313e
00000360: e367 243e 1c0c 3c3e 8e62 2a3d 0f76 26be
00000370: d9df 843b aae8 8d3d 6c6a ec3d 85fc 483d
00000380: 7f30 863d 1da2 bcbd d693 0bbe 2647 343d
00000390: 66f0 72bd 44ee 3f3d 9db2 93bd 0f1d 393b
000003a0: 4445 9abd 177c c5bb 3e29 86bc 8e36 503c
000003b0: cce9 16bc 3c44 4bbd c1f3 fbba f3a1 403d
000003c0: d328 a83d 281e 0ebe 8940 eebd ed36 7bbd
000003d0: 3287 b1bb 6b08 043b 5d89 c43d 0276 c5bc
000003e0: 0326 173e 696a e6bb b2ae 8a3e b670 c13d
000003f0: a37d 923c 88fd 97bc 4915 0f3d 0f63 4f3e
-0.025180537 0.029205004 0.024173982 -0.22151573 0.049426638 -0.106297955 0.0515107 0.05658027
0.1864894 0.112589985 -0.21174534 0.064587034 0.159187 0.16844307 0.033165902 0.10460774
0.18428095 -0.15931273 0.17337535 0.0024907002 -0.013226832 -0.026922893 0.16253105 -0.06541981
-0.07738329 0.16844483 -0.018235542 -0.03792508 -0.095197536 0.028502291 -0.048083004 -0.03172999
0.24072576 -0.08958774 0.013247257 0.0058900467 -0.10985402 -0.039180215 -0.1243905 -0.004934513
0.14621064 -0.09882928 0.056844577 -0.17666122 -0.16797866 -0.024185264 -0.06091802 0.26904827
-0.07610333 0.19132248 0.12781782 -0.18108149 -0.098499514 0.06920324 -0.114446335 0.14839475
0.04554578 -0.026012084 -0.2037319 -0.018231483 0.024962297 0.079510905 0.0024480806 0.08892003
0.18945546 -0.1354072 -0.034194753 -0.047668993 0.1381248 0.07965942 0.08379796 -0.002755565
-0.0042223115 -0.0893963 -0.093433 0.18871044 -0.059615247 -0.0022619176 -0.0527216 -0.06742347
-0.133296 0.07050792 0.17824672 -0.1438215 -0.18353195 0.035591718 -0.16130543 -0.12594578
0.009014078 -0.025754746 0.057274364 -0.06702836 -0.012758559 0.18538268 -7.958167e-05 -0.085824005
-0.029065741 0.063663185 0.04333337 -0.031273454 0.07505697 -0.033242743 0.09582534 0.14091888
0.022156226 0.2109391 0.11741076 0.10450153 0.0072394884 0.05397559 0.16645817 0.07595962
0.09186044 0.1465147 0.3139453 -0.024796834 0.0064534564 0.0027837756 -0.035280973 -0.03328931
-0.13605462 0.12429649 -0.08129151 -0.043995053 0.09478609 -0.07217345 -0.22979353 -0.005956772
0.10883766 -0.02516517 -0.12900582 0.03199799 0.07377453 -0.08413268 0.09515352 0.057855643
-0.07353886 -0.16266328 -0.10348754 0.044086237 -0.058285195 0.09201707 0.054480284 -0.13729002
-0.022474647 -0.14681162 -0.1173277 0.13355367 -0.08107695 -0.0061715017 -0.015688736 0.092404075
0.05499015 -0.032104116 -0.12782347 -0.067752555 -0.09112729 -0.011533508 0.00237136 -0.09453769
-0.12565595 -0.15330265 -0.05628297 -0.06711016 0.046019834 -0.038874853 -0.07470681 0.06668947
0.0014339171 0.119523756 -0.008709665 0.035733826 0.020524729 -0.002617024 0.15280633 -0.032905493
0.17942731 -0.029711064 -0.061079793 -0.03903044 -0.057340164 0.16084792 -0.0515508 0.18486652
-0.052096475 -0.07620494 -0.008998241 -0.024290003 0.12301594 0.015447374 0.10378659 -0.066345334
0.017004434 -0.07894224 -0.03553079 0.0647043 0.0035277684 0.0051713977 -0.028873555 0.012967986
0.02621196 -0.033730064 -0.01802055 0.0033351455 -0.011493272 0.18643008 0.22439557 0.06611103
0.012854089 -0.015888957 0.08506816 0.12779789 0.021200914 0.18308951 0.09585532 0.1731235
0.16055255 0.18363994 0.041597895 -0.16255973 0.004055005 0.06929143 0.11543736 0.049068946
0.06552219 -0.09210608 -0.13630614 0.044013165 -0.059311293 0.046858087 -0.07211802 0.002824608
-0.075327426 -0.0060267556 -0.016377088 0.012708319 -0.009211015 -0.04962562 -0.0019222425 0.047029447
0.082109116 -0.13878691 -0.11633403 -0.06133168 -0.005417728 0.002014662 0.095965125 -0.024104122
0.14760594 -0.007031728 0.27086407 0.09445326 0.017882174 -0.01855351 0.03493241 0.20252632

classifier.1.bias f4 [10]
00000000: b887 923d 9e1f 11be a866 df3e 725b 72bd
00000010: eb62 c5be 8f94 27be e85d 293e 1799 3e3c
00000020: c7bb 0c3e 8671 dfbd
0.071547925 -0.14172217 0.43633008 -0.05916924 -0.3855203 -0.16365264 0.16539729 0.011633179
0.13743506 -0.10910325
